weights.pth (torch, 110367 bytes, 5 tensors)

layer1.0.weight f4 [10, 3, 5, 5]
00000000: 8825 603d 656f 963b 5dde df3d d3b0 82bd
00000010: 6233 d3bb 468c e33d c9bb 94bd d754 18ba
00000020: b4df 343d 1202 d83d 3b8a ea3d 32e7 d7bd
00000030: 09f9 23bc e517 66bd b613 24bd aeae 993d
00000040: a018 b2bd 0d69 bfbd 0aee 733d a00b 88bd
00000050: d9c5 be3c 3375 c0bd 28b1 7abd 4619 c53c
00000060: 0522 27bd ae7d e1bd 77bc aa3d ddc3 94bd
00000070: 8114 0fbd bcb6 473c 4ec8 bdbd 574c 37bd
00000080: c8fc 88bd b822 96bd 220b 9c3c 21e5 c73c
00000090: 5077 56bd e1ce b83d afd8 23bb 06c4 aa3d
000000a0: 932c ca3c 99c9 c93d 6493 ef3d cf19 373a
000000b0: 7ea5 a0bd 8399 9ebd c6a0 553d 2d7f aa3c
000000c0: 7c1e 7ebb cef0 b9bc ffb1 e53d 0db1 aebd
000000d0: 2150 97bd 963b 193d 7f91 5ebd 589f 9fbd
000000e0: b91c cf3c e15f 5a3d efe2 04bc f7c9 e9bd
000000f0: 3c50 84bd 6ac3 42bd 9163 0a3d 5359 04bd
00000100: a43c e5bb af04 f43d 2db8 e73c 5e4a db3d
00000110: b01f b3bc 3b64 533d 06fa 0cbc 92d5 b63c
00000120: e431 a43d 2181 c83d aef9 523d 39eb d7bd
00000130: 5b39 debd fac7 0dbe 9c1a f8bc 66e9 86bd
00000140: 17af b5bc 812a 673c b562 913d 153f d33d
00000150: 0e43 2ebd fe3f e9bc 33c7 fc3d 691f 0e3d
00000160: 819c b9bd 5caa b23d fbdb 1dbc d1dc 89bd
00000170: 95ea c53d 45f3 b2bd e4a8 9dbd 928d e93d
00000180: 7de2 853d 1bcc 163d 3d5f 133d 8492 bc3a
00000190: 8ffa 4c3d fe64 2cbd 5a30 51bd 4d23 e3bd
000001a0: 221f a637 7be2 a1bd db03 713c eca2 bebd
000001b0: e484 be3d c6c9 be3c 86b9 0abc a230 b0bc
000001c0: 293b a1bc cea5 ed3d 513e 5d3d 7875 2fbd
000001d0: 0813 463d 7823 b7bd 80e3 d2bd 8c7e 1fbd
000001e0: f1d6 933c 4689 003e c083 063d 4d9d 47bc
000001f0: 2c4c 4ebd aa60 1e3d 4be3 1ebd 3452 a4bd
00000200: 5772 c63d 4d39 11bd 7c45 43ba d527 3abd
00000210: bd3b 65bd 88ff 9a3d 0d61 e63d 0b81 7a3d
00000220: 80aa 863d d8be a2bd b6be 94bd 3524 e5bc
00000230: c50d 6c3d d453 043e e3d5 f6bc 4cb5 5ebd
00000240: 6b0c 9dbd 1089 cb3d c21b 213e 7469 7fbd
00000250: 254f 99bd dd68 a4bc 12d9 15bd 590a e7bc
00000260: 2e3f 4d3d ca41 99bd be5f ccbd 4b15 8bbd
00000270: 4053 d5bd 0720 86bd be02 0b3c 0747 293d
00000280: ca6e 803d 1a6b 1dbd e6ce 5a3d 11ef 5e3d
00000290: f50d 183c a3a5 8d3d b6bc 163d 14d7 7fbd
000002a0: 2588 d93d 2ee8 553d cd90 883d f440 153d
000002b0: bce1 c13c 8466 b7bd 0780 29bd 1aa0 abbd
000002c0: c086 cabc 213a b2bc 38de 8dbd 7ff2 803d
000002d0: bc77 54bd 3e33 a3bd 6be5 cb3d 3195 45bc
000002e0: 12c1 1fbc 804a 94bd 2c66 bcbc ae89 db3d
000002f0: 3905 89bd e74d 333d c5eb 3bbc a974 713d
00000300: b4a1 403d 1ffa d83d 6821 d53d a802 903d
00000310: 6943 cbbd c569 cabd 8a2c d0bd 9d50 95bd
00000320: c177 1e3c 61d4 a03d 2d04 bdbd 5cc7 6bbd
00000330: 6c9d 873d c531 a53d e598 bf3c 1b98 183d
00000340: c631 e23d db5f f0bd 6771 45bd 6c21 bb3d
00000350: 0707 b4bd 9068 563c fff5 ce3d 86eb 36bd
00000360: 903b b2bd ed0f 0b3d 7ec4 ca3d cf5d d2bd
00000370: bf61 533d 94ec 963d eb5c eabc 9c74 56bb
00000380: 1d1f a03d c950 3b3d 605c e53c 0231 9d3d
00000390: 2373 0dbd dca2 7f3d e70d aabd 4012 0fbc
000003a0: 5e09 173d 2e11 ed3c d6fa 77bc 1da2 cdbd
000003b0: ec76 ae3d adfe f03a 0ec3 5d3d a73e 133d
000003c0: 2b3e cc3d d38b be3d c633 15bd 6a21 1f3d
000003d0: 379d 55bd f5ef cb3d 8d36 853c 58eb 70bc
000003e0: 2159 0fbb d641 ebbd 6e93 0fbd c7b9 83bd
000003f0: 7b6d a33d 9c59 a03d b402 9d3c ef9f f8ba
0.054723293 0.004590916 0.10931084 -0.06381383 -0.0064453343 0.111107394 -0.0726238 -0.0005810982
0.044158652 0.1054727 0.114521466 -0.10542144 -0.010008105 -0.05617513 -0.04005786 0.07504021
-0.08696103 -0.09346209 0.059553184 -0.06642842 0.0232877 -0.09397354 -0.061204106 0.024059903
-0.040803928 -0.110102996 0.08336728 -0.072639205 -0.034931663 0.012189563 -0.09266721 -0.044750538
-0.06688839 -0.07330841 0.019048277 0.02440125 -0.05235988 0.09023834 -0.002500098 0.0833817
0.024679458 0.09852905 0.116980344 0.0006984742 -0.07844065 -0.07744124 0.05215528 0.020812595
-0.0038775494 -0.022697832 0.11215591 -0.085298635 -0.0738833 0.03741034 -0.054337975 -0.07794064
0.02528225 0.053314094 -0.008110746 -0.11415475 -0.06460616 -0.047549643 0.03378636 -0.03231175
-0.0069957543 0.11914956 0.028286064 0.10707544 -0.021865696 0.05160926 -0.008604532 0.022318635
0.080173284 0.097902544 0.051507644 -0.10542912 -0.108507834 -0.13845816 -0.030286126 -0.06587486
-0.022178216 0.014109255 0.07098905 0.10314766 -0.042544417 -0.028472897 0.12342682 0.034697924
-0.09063054 0.087239 -0.009634967 -0.067315705 0.096638836 -0.08737806 -0.07698229 0.114039555
0.0653734 0.036815744 0.0359795 0.0014386927 0.05004364 -0.0420885 -0.051071502 -0.110907175
1.980324e-05 -0.07904526 0.014710392 -0.09308419 0.093026906 0.023289572 -0.008467084 -0.021507565
-0.01968153 0.1160389 0.054014508 -0.042836636 0.048357993 -0.08942312 -0.102972984 -0.038939044
0.018046828 0.12552366 0.03284049 -0.0121834995 -0.050365612 0.038666405 -0.038790982 -0.080234915
0.09689777 -0.035455037 -0.00074490136 -0.045448143 -0.055965174 0.0756827 0.1124898 0.06115822
0.06575489 -0.07946557 -0.07262938 -0.027971366 0.05763032 0.12922603 -0.030131286 -0.054372117
-0.07668384 0.09938252 0.15733245 -0.062356427 -0.07485799 -0.020069534 -0.036583968 -0.028203176
0.05010908 -0.074832514 -0.09979199 -0.06791171 -0.10416269 -0.065490775 0.0084845405 0.041327503
0.06271131 -0.038432218 0.05341997 0.05442721 0.009280671 0.06916358 0.036801063 -0.062460974
0.10621671 0.052223377 0.066682436 0.036438897 0.023667209 -0.089551 -0.041381862 -0.08380146
-0.024722457 -0.021756234 -0.069271505 0.062962525 -0.051872 -0.07968758 0.099558674 -0.012059496
-0.009750621 -0.07240772 -0.022997938 0.1071962 -0.06690449 0.043775465 -0.011469786 0.058949146
0.047029212 0.10594582 0.10406762 0.07031757 -0.09924967 -0.09883455 -0.10164745 -0.072907664
0.009672106 0.07853008 -0.09229312 -0.05756317 0.06621823 0.080661334 0.023388335 0.037254434
0.1104465 -0.11737033 -0.048203852 0.09137234 -0.08790403 0.013086453 0.10105514 -0.044658206
-0.08702767 0.033950735 0.09900759 -0.10271799 0.05160689 0.073693424 -0.02860876 -0.0032723313
0.078184344 0.04573134 0.02799815 0.07675363 -0.03453363 0.062411174 -0.08303433 -0.0087323785
0.036874168 0.028938856 -0.015135488 -0.10040686 0.08518776 0.0018386446 0.054141097 0.03594842
0.09972795 0.09304013 -0.036426328 0.038850226 -0.052151885 0.099578775 0.016261363 -0.014704548
-0.0021873193 -0.114871666 -0.03505271 -0.064319186 0.07979866 0.07829592 0.019166328 -0.0018968562

layer2.0.weight f4 [40, 10, 5, 5]
00000000: 1312 c33b 8055 7dbc 0575 143d c8f2 51bd
00000010: 4e96 853d d967 23bc 402f 6e3c 7c9a 2cbc
00000020: e7ba 2dbd 5e6c 7fbd 0dbd 3fbd c785 8c3c
00000030: 6d30 573a 12db 5dbb 6bc3 62bd 66f4 513d
00000040: 3af2 48bd 1347 13bc 5032 bcbc 7334 163d
00000050: 570f 773c b005 643c 453f 28bd c8ff 223d
00000060: 726a 683c 7e95 143e 1d8c 18bd ed27 4abb
00000070: 2f1d a03d 0b9d 9d3d 57e9 ee3c 58bf 1dbc
00000080: 7f2f 5cbd 0f82 253d 4252 d83c a330 b03c
00000090: d884 ae3d a07a 5fbb 4425 483c 5b73 e13c
000000a0: 816c b8bd 4ad5 983b 2b0d 91bb e158 89bb
000000b0: eb6f e6bd bcd9 b33d 9269 263d 1bbc 513b
000000c0: bd8f b33b f47e 53bc 62d6 983d 8472 003d
000000d0: 5b3a 85bc 6a67 29bb 4275 1e3d 17e8 583c
000000e0: 8af7 433d ca53 f73c d611 a5bb 6757 e13b
000000f0: b2a5 c43a 34ab a6bd 1215 cb3c 3636 5fbc
00000100: 779f a23c 9f51 9abd 384b a03c 2840 3b3d
00000110: 9657 5a3c 3e7f e8bc 5400 11bd 37d8 a8bb
00000120: 241d 0b3c 3077 283d 1aeb 45bd 0d5a 613d
00000130: e98a 5dbb cf07 283d 33d8 333b 81c4 123c
00000140: 22a2 5bbd a403 593d 4aac ea3c b38b 4d3d
00000150: 8260 91bc d334 4bbb cd17 22bd f000 283c
00000160: a39f d7bc 81fc 41bd 9181 80bc c176 233d
00000170: 2799 29bd a976 4ebd 4adb cf3c beb8 4abd
00000180: ad19 13bc dc7d 113d 096f cabc ad1a 00bd
00000190: 39de 383d 9433 103d eac9 663d a101 05bd
000001a0: 64c2 9a3d 3851 933d 565f 65bd ba33 a03b
000001b0: 6fd9 413d c6ec e8bc 1400 14bd 48f4 89bd
000001c0: 5254 2d3d 7c41 d13c dbec 2a3d 1a1d 163d
000001d0: 1d38 0fbd 389d 32bb 7ebd 9a3c 93b0 52bc
000001e0: 77c0 a43c eae9 d6bc 8870 803d 8ab3 4c3d
000001f0: 3ff8 303a b17f 2c3d 38bc 463b 3582 953d
00000200: a81f 063c 028c 843d f468 4f3d c87a 68bb
00000210: f4d0 d5bc 9482 90bc ec24 4b3d 6c38 223b
00000220: 036b 04b9 eb09 85bc 11fa 76bb cb21 87bd
00000230: da3d 77ba b41d 35bd 63ad 2cbd 185b 4ebd
00000240: ac9f 7bbd fc68 53bd 7d5b 913d 2ec0 f6bb
00000250: ff43 253d 65f6 1d3d 9505 253d fe75 62bd
00000260: 7775 5f3d 1e7e 963d 47ff 913b 2526 233d
00000270: 280f 96bc 936a 40bd 2d18 2bbd 8b55 97ba
00000280: 6a0c 08bd 23bd 913d 409d 84bd 3424 f93b
00000290: 58a1 48bc 584d 41bd 29f7 7ebd e0f9 1f3b
000002a0: fde5 ed3b fca3 c03d 3e2d 21bd 5595 7dbd
000002b0: 3140 983d c523 903c 2234 a5bd e6c7 76bd
000002c0: 36ba e0bb 1aae 8d3c 1136 b2bc a511 753d
000002d0: 80c6 b33c edae 763c dded 8cbd c29d b6bc
000002e0: 62e9 34bc 172a 7ebd dac9 1bbd 4596 533d
000002f0: 471d 56bd a884 243d b24f 2ebc 1edd 5b3c
00000300: 760b 993c b8a1 8d3c c851 423c 9c19 92bd
00000310: 4e61 803c 0c6f 253d 3b45 01bd 568c 9bbd
00000320: a3ec 243d 40da 91bd 30bf 343d 6d27 31bd
00000330: 9501 c93b 66cd 853d d94d 5f3c 1f6d 0ebc
00000340: 4bd2 48bd 1d4f 4b3d 316a 2dbc 99b8 56bd
00000350: e65f c53c 619d 02bd fff2 34bd a5dc dabc
00000360: 0a8c 0fbd ae17 98bc 0835 24bd a532 10bd
00000370: edad c63c 14ce 9fbc ba26 90bc 7e7f 73bc
00000380: 26ae 333c 149a 72bc 28fe 2a3d 32ea 073d
00000390: 0204 f43d 2ad2 d73c 4bc4 4c3c bf5a ffbc
000003a0: fd97 873d 169e 353d 2fcf 913d 80fb 233c
000003b0: a3fd dfbc 0a50 23bd 3e79 d0bc 6acf 8bbd
000003c0: 0141 173d ab53 e1bb b08e 53bd dc3e 2e3d
000003d0: 371f 13bd 3b91 c13b 4d22 173c de4e bb3c
000003e0: 7977 973d 41fc 423c 5b8e 9c3c 4b71 6ebd
000003f0: 5339 00bb b569 473c a146 23bd f9bb d6bb
0.0059530823 -0.015462279 0.03624441 -0.051256925 0.06522809 -0.00997349 0.014537632 -0.010534879
-0.042414572 -0.062359206 -0.046811152 0.017153634 0.0008208815 -0.00338525 -0.055362146 0.051258467
-0.04905913 -0.008989113 -0.02297321 0.036671113 0.015079341 0.013917372 -0.041075964 0.039794713
0.014185535 0.14510152 -0.037242997 -0.0030846552 0.07818066 0.07695969 0.029164 -0.009628139
-0.053756233 0.040407237 0.026406411 0.021507567 0.08521432 -0.003410019 0.012215916 0.027520826
-0.090050705 0.004664098 -0.0044266186 -0.0041915034 -0.112518154 0.08781764 0.040628023 0.0032002989
0.0054797814 -0.012908686 0.07462765 0.03135921 -0.016263178 -0.0025848993 0.038686045 0.013238928
0.047843494 0.03019132 -0.0050375266 0.0068768742 0.0015002994 -0.08138123 0.02479032 -0.013623765
0.01985143 -0.07535099 0.019567117 0.04571548 0.013326546 -0.028380986 -0.035400704 -0.005152728
0.008490834 0.04112929 -0.048319913 0.05501752 -0.003380472 0.04102307 0.0027442097 0.008957983
-0.05362142 0.052981988 0.028646607 0.050182056 -0.017746214 -0.0031006827 -0.03957348 0.01025413
-0.026321238 -0.047359947 -0.015686782 0.039908174 -0.041405823 -0.050406132 0.02537312 -0.04949259
-0.00897829 0.03552042 -0.024711149 -0.03127544 0.045133803 0.03520544 0.056344904 -0.032472257
0.07556608 0.071932256 -0.055999123 0.004888979 0.0473265 -0.028433215 -0.036132887 -0.06736046
0.042316742 0.02554392 0.04172979 0.036648847 -0.034965623 -0.0027254354 0.018889185 -0.012859481
0.020111306 -0.026234586 0.06271464 0.04997591 0.0006750859 0.042113964 0.003032459 0.07300226
0.008186258 0.06472017 0.0506372 -0.0035473574 -0.026100613 -0.01764039 0.04959576 0.0024752868
-0.00012628366 -0.01624008 -0.0037685672 -0.06598242 -0.0009431519 -0.04421778 -0.042157542 -0.050379843
-0.06143157 -0.051613793 0.07097528 -0.007530234 0.04034805 0.03856506 0.040288527 -0.055288307
0.054555383 0.07348274 0.0044554803 0.0398313 -0.018317774 -0.046976637 -0.041771103 -0.001154588
-0.033214964 0.07116153 -0.064753056 0.0076031927 -0.012245499 -0.0471929 -0.06224743 0.0024410412
0.0072600828 0.094062775 -0.039349787 -0.061909992 0.074341185 0.017595181 -0.08066584 -0.06024923
-0.0068581356 0.017294932 -0.021754296 0.05983128 0.021945238 0.015056354 -0.06881306 -0.022292022
-0.011041971 -0.06205186 -0.038034298 0.05165698 -0.052274015 0.040165573 -0.010639118 0.013419418
0.018682223 0.017289028 0.0118603185 -0.07133791 0.015671398 0.040389106 -0.031560164 -0.07595126
0.040264737 -0.07121706 0.044127643 -0.04325049 0.006134222 0.06533317 0.0136294 -0.008693009
-0.049028676 0.049635995 -0.0105844 -0.05242214 0.02409358 -0.03188837 -0.04417705 -0.02671654
-0.03504566 -0.018565979 -0.040089637 -0.03520455 0.024252856 -0.019507445 -0.017596591 -0.0148619395
0.010966813 -0.014807243 0.04174629 0.03318233 0.11914827 0.026345331 0.012497972 -0.0311712
0.06620786 0.044340216 0.07119595 0.010008693 -0.027342623 -0.039871253 -0.025448438 -0.068266705
0.036927227 -0.006876429 -0.05164975 0.042540416 -0.03591844 0.0059072054 0.009224487 0.022864755
0.073958345 0.011900962 0.01911085 -0.058213513 -0.0019565418 0.012171199 -0.03986228 -0.00655317

layer3.0.weight f4 [100, 160]
00000000: 66de 1b3c b511 643d eab4 e4bc a807 173d
00000010: d0cc 91bd f8a4 813d 3c2a b0bc 9557 d43c
00000020: f07e a6bc 6872 cebc 3309 f33c 694f 1ebc
00000030: ff15 d0bd a267 a7bc 1c12 4ebd 6ffa b13d
00000040: b4cb cebc d96a d13c d9a1 b03d 01df 9cbc
00000050: 2500 9fbc ccd6 7a3d 54b2 a83c c7d6 653d
00000060: 67ac f03c c3cc 99bc 6ba6 81bc dcb8 f63c
00000070: 65d6 753d 888c 50bd 2084 b8bc 8f3f a93c
00000080: 1969 513d 7d8a 433d 6adb a0bd 897a 90bd
00000090: c5a4 723d 827b c23c 02de 033c f570 663d
000000a0: aaf8 473d 2794 9b3d 8a6b 8d3d b0ea 403d
000000b0: 28af 823d ccdd 32bd b4ba 9dbd 5714 353c
000000c0: e8b5 4cbd 6888 4f3d d958 2bbd 0806 53bd
000000d0: 94d7 bb3c d39c 89bb b3e4 e5bc 7b62 123d
000000e0: 22fe a63d 9eea 0bbd 9c86 413d 96d9 a43d
000000f0: 7799 83bd b282 993c 97c2 54bd 5616 f6bd
00000100: 5583 113c 5c2d 0b3c d1c2 173d 8797 4cbd
00000110: 33f9 50bd 6b43 18bd ad7b 9cbd df77 95bd
00000120: 824a 3a3d a400 86bc 7405 b3bd b8e0 ec3c
00000130: e15c 3fbd 1161 72bd 04b3 8dbd 19d9 913d
00000140: 80f4 1a3e d1ea 253c 0aae b43d 83e6 ef3d
00000150: b1f5 39ba db32 393b efc6 943d 3ca5 6e3c
00000160: 1bae fb3d 8f0b 853d 67bc 063c 3406 28bd
00000170: 0cf9 8fbd 60fd 063d a994 16bb 37b0 a23c
00000180: 32ae fb3c f37d 34bd ffd6 60bc 1557 4e3d
00000190: 3353 59bd 6a21 4ebd 9fb5 483c c2d6 fc3c
000001a0: 58b7 463d 8a7f 96bd b9c0 38bc 3c92 c0bd
000001b0: 9cb5 143c 29dd 40bd cfa7 103d 85c4 523c
000001c0: 3bcb 21bd c084 a7bd e1af a03b 6819 6c3b
000001d0: c069 7f3b f03d 2d3c 81ab 08bd 21aa c639
000001e0: 2b15 453d 66cf 043d 4898 ebbc 2903 933d
000001f0: a0ad 353d 2234 803d bbcd e5bc b0cc 183d
00000200: 34f4 33bd eb8d 8a3d 3305 5bbd f250 59bd
00000210: b061 31bc 6c68 cd3c 8500 f2bb ae52 743c
00000220: f9bc 653c 7e2c aabc b3d6 7f3d 4f5c 033d
00000230: bb04 653c 3213 f63c 2935 08bd 41c8 c73b
00000240: 30bb 3a3d a5c9 19bc 2b66 2b3c 6088 4d3d
00000250: 5ae5 6f3d 1b76 f83c 3acc 19bd 93bf 8dbd
00000260: fe0f ca3c f9b4 52bd 4667 09bd aa93 6d3b
00000270: 7471 a53c 9b98 c83c a2c0 f23c 1c6c 02bd
00000280: b36c c73d 7a8d 54bc 9943 0a3a 9bf6 783d
00000290: 0888 e93c 9ff4 8a3d 47d2 9f3d b90d 913d
000002a0: 5d2e afbb c3c0 443c 685d 26bd 92b3 cfb9
000002b0: 97fe 493d 6639 693d b677 a2bd 1099 07be
000002c0: e748 983d ad17 973c 0bd3 0dbd 8b09 e9bc
000002d0: a5ae 99bd 8ac9 6b3c 320f 13bd 5e36 6b3c
000002e0: 1975 5cbc c25b d23b 6593 91bc b15f edbb
000002f0: bf4e 393d 9353 0cbd 95f4 883d 36d9 81bd
00000300: 2399 c1bb 43dd dc3b 3752 163d 1b96 29bd
00000310: 78ad 933b 8cf2 293c 57f5 263c 1b22 94bc
00000320: fcc9 fb3c dadb 973d 6ab2 c23b 0896 9fbc
00000330: 4458 21bd 3e05 963d aeca 97bc 3fca 6ebd
00000340: 7a37 053d 2978 1dbd a4cb 39bd a370 cabc
00000350: 78fc 1f3d f7f5 9f3d 830d 9cbd 94a5 4f3c
00000360: 8674 21bd 70c3 e9bb b8ee 1a3c f48b 87bc
00000370: 8649 a43c 2811 303d f2ba 983d c532 36bd
00000380: a066 5ebd 2f9e ecbb eea1 673c 85ee d3bb
00000390: 0f40 0ebd fd08 37bd 3149 7fbc d1ae 7cbd
000003a0: 5232 dabb 5e31 3abd cb47 953d 33e4 6b3d
000003b0: 87bb 78bd 6337 433d e83c 6b3d e491 12bd
000003c0: 90a1 7fbd 9ca7 913d 089f 503c 204d 6fbc
000003d0: 42a8 77bc 0c37 4e3c abed 443d 1a45 96bd
000003e0: a62f 81bb 16c9 b33c 8729 9d3c 5531 bbbd
000003f0: 190c 98bd 36a1 44bd 8cc5 8fbd 38dc 3b3d
0.009513473 0.05568095 -0.027918298 0.036872536 -0.07119143 0.063302934 -0.021504514 0.025920669
-0.0203242 -0.025201038 0.029667472 -0.009662488 -0.101604454 -0.020435158 -0.05031024 0.086903445
-0.025243618 0.025563644 0.0862462 -0.019149305 -0.019409249 0.061240003 0.020592846 0.05611303
0.029379083 -0.018774396 -0.015826425 0.030117445 0.060018916 -0.05091527 -0.02252394 0.02066019
0.05112562 0.047739495 -0.0785435 -0.07054622 0.059239168 0.023740534 0.008048536 0.056260068
0.04882113 0.07596617 0.06905277 0.047098815 0.06381065 -0.043668553 -0.077016264 0.011052213
-0.049978167 0.050667197 -0.04183278 -0.051519424 0.022929944 -0.004199603 -0.028063154 0.03573845
0.08153941 -0.034159295 0.047247514 0.08049314 -0.064257555 0.018739078 -0.051943388 -0.12015979
0.00888141 0.008494701 0.037051026 -0.049949195 -0.051018905 -0.03717367 -0.07640777 -0.07298254
0.045481212 -0.016357727 -0.087412745 0.028915748 -0.046719436 -0.0591746 -0.0691891 0.07121486
0.15132332 0.010126785 0.08822258 0.117138885 -0.0007093801 0.0028259072 0.07264506 0.014565762
0.12289067 0.06496345 0.00822363 -0.04102154 -0.07029924 0.03295648 -0.0022976792 0.019859416
0.030722711 -0.044065427 -0.013723134 0.050376017 -0.05305786 -0.050324835 0.012250333 0.030864123
0.048514694 -0.07348545 -0.011276417 -0.09402892 0.009076502 -0.047085915 0.035316285 0.012864237
-0.039500456 -0.08179617 0.004903779 0.0036025885 0.0038972944 0.010573849 -0.033366684 0.0003789226
0.04811589 0.032424353 -0.028759137 0.07178337 0.044355035 0.062599435 -0.028052201 0.03730458
-0.043934062 0.0676535 -0.053471755 -0.05305571 -0.010826513 0.025074206 -0.007385316 0.0149122905
0.014022105 -0.020773169 0.062460613 0.032070454 0.013978179 0.03003845 -0.033253822 0.00609687
0.045588672 -0.009386455 0.01046137 0.050178885 0.058568336 0.030329755 -0.03754828 -0.069213055
0.024665829 -0.05144212 -0.033545755 0.0036251345 0.0201957 0.02448683 0.02963287 -0.031841382
0.097375296 -0.012973184 0.0005274355 0.060782056 0.028507248 0.06784939 0.07803779 0.070826955
-0.005346103 0.012008849 -0.040616423 -0.00039615907 0.04931506 0.056939505 -0.07932989 -0.13241982
0.0743578 0.018443907 -0.034625094 -0.028446933 -0.07504014 0.014391312 -0.035903163 0.014356224
-0.013455653 0.00641963 -0.017770479 -0.0072440733 0.045241114 -0.03425939 0.06687275 -0.06340258
-0.005908148 0.0067402436 0.0366995 -0.041402917 0.004506763 0.010372769 0.0101903295 -0.018082669
0.030735962 0.0741498 0.005941679 -0.01948072 -0.039390817 0.073252186 -0.018529262 -0.058298346
0.03252361 -0.03844467 -0.045360222 -0.024711912 0.039059132 0.07810586 -0.07619765 0.012673754
-0.039417766 -0.0071338937 0.009456329 -0.016546227 0.02005459 0.04298511 0.07457532 -0.04448201
-0.05429709 -0.0072210054 0.014137728 -0.0064676427 -0.03472906 -0.044686306 -0.015581415 -0.061690155
-0.0066588307 -0.045457236 0.07289084 0.057590675 -0.060725715 0.047660243 0.05743113 -0.035783663
-0.062409937 0.07112047 0.0127332285 -0.01460579 -0.015115799 0.012586366 0.04807822 -0.07337399
-0.0039424477 0.021946471 0.01918484 -0.09140269 -0.074241824 -0.048005305 -0.07020101 0.045864314

layer3.0.bias f4 [100]
00000000: b3e2 933d 4a55 a03d d14b a43d 1714 80bd
00000010: d089 25bc 0d7e 103d 9a63 d63c 918e 84bc
00000020: 6be8 89bc a065 c83d 403e 413c 9776 783d
00000030: a4b3 99bd 860e 4b3d e6e4 eabc a686 183d
00000040: 1692 66bd 60cd 853c 9d50 b1bc a3da ad3d
00000050: cd88 03bc 833c 883b b9a6 8e3d 55ff 373c
00000060: 4280 a0bd 02a9 933d 1959 89bc e06d 6bbc
00000070: 93d4 24b8 d29f 07bd da7c c33d 10d4 d5bc
00000080: 106b c2bb b439 573d b52b aa3d 38c8 c23a
00000090: 9429 1abc 8212 3fbc de2b 943d c5b4 093d
000000a0: 0cae 653d bbab 86bc 1059 23bd 0b90 05bd
000000b0: 23ca 813d 14a5 c23c e972 95bc 3bea 2e3d
000000c0: 047c a5bd bf37 5c3d 21f7 3dbd fe45 88bd
000000d0: 0995 23bc ae4e 08bd 2daf a0bc 9c12 febb
000000e0: 2c76 853d 3889 be3d 02aa 3fbd 730c 0b3d
000000f0: 21f7 a83d 611b a3bd 3f28 94bc 9d8b c33d
00000100: f495 723d ff81 993b 5822 42bd 4dab 523d
00000110: 570b 1fbd 3c44 be3c bfa3 36bd 473a 98bd
00000120: 4e9e 023d 6cae a0bd ac3f 5ebc 04ac 9e3c
00000130: 0957 67bd a4ee 10bd 85db a93d c94b 76bd
00000140: 488b ae3d 13ff 2abc e41f 8abd acd9 b0bd
00000150: de57 36bc 0409 973d 2da9 94bd b1a0 963d
00000160: ea5b b1bb 12ee e83c cd45 34bc a6c2 b03d
00000170: 4495 953c efa7 50bd ddc6 e8bb 1c8c 323d
00000180: 5a4a 283c ff0c ccb9 093c 613d dae1 593d
0.07220974 0.078287676 0.08022273 -0.06253832 -0.010103658 0.03527646 0.02617054 -0.016181262
-0.016834458 0.097850084 0.011794627 0.06065997 -0.07504967 0.049574398 -0.0286736 0.037237786
-0.056291662 0.016333282 -0.021644885 0.08488967 -0.008028221 0.004157604 0.069653936 0.0112303095
-0.07836963 0.0720997 -0.016766118 -0.014369458 -3.9298622e-05 -0.0331114 0.09545298 -0.026102096
-0.005933173 0.052545264 0.08309118 0.0014860695 -0.009409327 -0.011662127 0.072349295 0.03361966
0.056074187 -0.01643931 -0.03987986 -0.032608073 0.06337383 0.023760356 -0.01824327 0.04270385
-0.08080295 0.0537641 -0.04637826 -0.06653975 -0.009984263 -0.03327816 -0.01961478 -0.0077536833
0.0651668 0.09303516 -0.04679299 0.03394742 0.08250261 -0.079642065 -0.018085597 0.095481135
0.059225038 0.004684686 -0.047396034 0.051432896 -0.038829174 0.023225896 -0.044589754 -0.074329905
0.031889252 -0.07845768 -0.013564985 0.019369133 -0.056479488 -0.035383835 0.08293823 -0.060130868
0.085226595 -0.010436791 -0.06744364 -0.086352676 -0.011129348 0.073747665 -0.0725883 0.07354868
-0.0054125683 0.028433833 -0.01100297 0.08630876 0.018259652 -0.050941404 -0.0071037845 0.04359065
0.010271633 -0.00038919595 0.054988895 0.053193904

layer3.3.weight f4 [1, 100]
00000000: 1153 623d 4e13 89bd 1432 823d 739d ac3d
00000010: 44fd d4bd 431f 95bd a5e9 e2bd 3c3c 9bbd
00000020: 564b 953d 338f d63d 5847 963d bdd3 90bd
00000030: 530c 623d fe3d 683d 230a a13d f127 bb3d
00000040: cc81 e2bd 51f9 fd3b a3a9 abbd f3b2 c03d
00000050: 3630 433d d770 1abe f634 823d 8cee b93c
00000060: 7238 80bd 7bc7 dd3d a86c 8ebd b686 da3d
00000070: 2a79 37bc 1a90 983c 0a38 02bd e823 d2bc
00000080: 8542 03bd d730 263d 4977 5a3d cd77 133d
00000090: 48ff a6bd dd3e a7bc 093a b0bc f577 c2bd
000000a0: 70b1 963d 2ea0 c33d 1a19 e23c d147 a93d
000000b0: ce24 d6bd 67da a93d 5646 253d 2d46 23bc
000000c0: 3fff 51bd 5370 6b3d d210 543d 00d5 c33d
000000d0: 950f b73d d002 dabd 0010 4ebd eb81 573d
000000e0: 2699 8ebd e2ab 4d3d f068 8abd 2f75 2fbd
000000f0: 35f3 6e3d e26a f03c 7138 e3bd 7b6f 0a3d
00000100: f183 adbc e41a 10bd b18a b7bd 0d6a 3cbb
00000110: 857d 79bd 6762 063c 6166 293b 13c0 b9bd
00000120: 9c19 84bd 5cce 013e aa21 913d d190 fa3c
00000130: 6e69 c4bb 1136 c2bd 7867 50bd 98a7 f6bb
00000140: 3077 30bd fe13 6f3d 6c7f 113d 2161 893d
00000150: 8168 c9bc 9579 1fbd 5698 b9bc 3cb9 96bd
00000160: 8d90 a23d 73b3 603c ddf9 213c 682e c53d
00000170: 4286 ddbd 1fa9 4b3d 9827 a4bd 1c0f 1f3d
00000180: ca1c a13c 7fc9 eabd efb5 45bd f0ed c13d
0.055255 -0.06693135 0.06357208 0.084284686 -0.10399869 -0.07281353 -0.110797204 -0.07579848
0.0728976 0.10476532 0.073378265 -0.07071636 0.055187535 0.056699745 0.078632616 0.091384776
-0.11059913 0.007750668 -0.08381965 0.09409132 0.0476534 -0.15082107 0.06357758 0.022696756
-0.06260766 0.108290635 -0.06954318 0.10670225 -0.011198321 0.0186234 -0.031791724 -0.025651887
-0.03204586 0.04057392 0.053336415 0.036002923 -0.0815416 -0.020415718 -0.021512048 -0.09495536
0.07358062 0.09552036 0.02759986 0.08265651 -0.10456239 0.0829361 0.04035028 -0.009965462
-0.051268812 0.057480168 0.051773854 0.09562111 0.08938519 -0.10645068 -0.050308228 0.052614134
-0.069628045 0.05021275 -0.067582965 -0.042836364 0.05833741 0.02934784 -0.1109475 0.033797722
-0.021181079 -0.035181895 -0.08962 -0.0028749735 -0.06091072 0.008202172 0.0025848376 -0.090698384
-0.06450197 0.12676376 0.07086499 0.030586632 -0.0059940135 -0.094829686 -0.050879925 -0.007527303
-0.043082416 0.058368675 0.03552191 0.06707979 -0.024585964 -0.03893431 -0.022655647 -0.073595494
0.07937727 0.013714659 0.009886232 0.09627992 -0.10816623 0.049721833 -0.080153644 0.03883277
0.019667048 -0.114642136 -0.04826921 0.09469211
